…
25%         54.750000
50%         61.000000
75%         66.000000
max         77.000000
Name: age, dtype: float64
Total dataset indices: 25656

<<< StratifiedKFold: 1/4 >>>
train_indices:  [    0     1     3 ... 25653 25654 25655] 19242
valid_indices:  [    2     9    12 ... 25646 25648 25651] 6414
images_names:  19242 35010
labels:  19242 67.0
images_names:  6414 35001
labels:  6414 67.0
----------------------------------------------------------------
        Layer (type)               Output Shape         Param #
================================================================
            Conv3d-1    [-1, 32, 128, 128, 128]             896
              ReLU-2    [-1, 32, 128, 128, 128]               0
       BatchNorm3d-3    [-1, 32, 128, 128, 128]              64
            Conv3d-4    [-1, 32, 128, 128, 128]          27,680
              ReLU-5    [-1, 32, 128, 128, 128]               0
         Dropout3d-6    [-1, 32, 128, 128, 128]               0
         MaxPool3d-7       [-1, 32, 64, 64, 64]               0
            Conv3d-8       [-1, 64, 64, 64, 64]          55,360
              ReLU-9       [-1, 64, 64, 64, 64]               0
      BatchNorm3d-10       [-1, 64, 64, 64, 64]             128
           Conv3d-11       [-1, 64, 64, 64, 64]         110,656
             ReLU-12       [-1, 64, 64, 64, 64]               0
        Dropout3d-13       [-1, 64, 64, 64, 64]               0
        MaxPool3d-14       [-1, 64, 32, 32, 32]               0
           Conv3d-15       [-1, 64, 32, 32, 32]         110,656
             ReLU-16       [-1, 64, 32, 32, 32]               0
      BatchNorm3d-17       [-1, 64, 32, 32, 32]             128
           Conv3d-18       [-1, 64, 32, 32, 32]         110,656
             ReLU-19       [-1, 64, 32, 32, 32]               0
      BatchNorm3d-20       [-1, 64, 32, 32, 32]             128
        MaxPool3d-21       [-1, 64, 16, 16, 16]               0
           Conv3d-22       [-1, 64, 16, 16, 16]         110,656
             ReLU-23       [-1, 64, 16, 16, 16]               0
      BatchNorm3d-24       [-1, 64, 16, 16, 16]             128
           Conv3d-25       [-1, 64, 16, 16, 16]         110,656
             ReLU-26       [-1, 64, 16, 16, 16]               0
      BatchNorm3d-27       [-1, 64, 16, 16, 16]             128
           Conv3d-28       [-1, 64, 16, 16, 16]         110,656
             ReLU-29       [-1, 64, 16, 16, 16]               0
      BatchNorm3d-30       [-1, 64, 16, 16, 16]             128
        MaxPool3d-31          [-1, 64, 8, 8, 8]               0
           Conv3d-32          [-1, 96, 8, 8, 8]         165,984
             ReLU-33          [-1, 96, 8, 8, 8]               0
      BatchNorm3d-34          [-1, 96, 8, 8, 8]             192
           Conv3d-35          [-1, 96, 8, 8, 8]         248,928
             ReLU-36          [-1, 96, 8, 8, 8]               0
      BatchNorm3d-37          [-1, 96, 8, 8, 8]             192
           Conv3d-38          [-1, 96, 8, 8, 8]         248,928
             ReLU-39          [-1, 96, 8, 8, 8]               0
      BatchNorm3d-40          [-1, 96, 8, 8, 8]             192
        MaxPool3d-41          [-1, 96, 4, 4, 4]               0
           Conv3d-42          [-1, 96, 4, 4, 4]         248,928
             ReLU-43          [-1, 96, 4, 4, 4]               0
      BatchNorm3d-44          [-1, 96, 4, 4, 4]             192
           Conv3d-45          [-1, 96, 4, 4, 4]         248,928
             ReLU-46          [-1, 96, 4, 4, 4]               0
      BatchNorm3d-47          [-1, 96, 4, 4, 4]             192
           Conv3d-48          [-1, 96, 4, 4, 4]         248,928
             ReLU-49          [-1, 96, 4, 4, 4]               0
      BatchNorm3d-50          [-1, 96, 4, 4, 4]             192
        MaxPool3d-51          [-1, 96, 2, 2, 2]               0
           Conv3d-52          [-1, 96, 2, 2, 2]         248,928
             ReLU-53          [-1, 96, 2, 2, 2]               0
      BatchNorm3d-54          [-1, 96, 2, 2, 2]             192
           Conv3d-55          [-1, 96, 2, 2, 2]         248,928
             ReLU-56          [-1, 96, 2, 2, 2]               0
      BatchNorm3d-57          [-1, 96, 2, 2, 2]             192
           Conv3d-58          [-1, 96, 2, 2, 2]         248,928
             ReLU-59          [-1, 96, 2, 2, 2]               0
      BatchNorm3d-60          [-1, 96, 2, 2, 2]             192
          Flatten-61                  [-1, 768]               0
           Linear-62                   [-1, 96]          73,824
             ReLU-63                   [-1, 96]               0
           Linear-64                   [-1, 32]           3,104
             ReLU-65                   [-1, 32]               0
           Linear-66                    [-1, 1]              33
              CNN-67                    [-1, 1]               0
           Conv3d-68    [-1, 32, 128, 128, 128]             896
             ReLU-69    [-1, 32, 128, 128, 128]               0
      BatchNorm3d-70    [-1, 32, 128, 128, 128]              64
           Conv3d-71    [-1, 32, 128, 128, 128]          27,680
             ReLU-72    [-1, 32, 128, 128, 128]               0
        Dropout3d-73    [-1, 32, 128, 128, 128]               0
        MaxPool3d-74       [-1, 32, 64, 64, 64]               0
           Conv3d-75       [-1, 64, 64, 64, 64]          55,360
             ReLU-76       [-1, 64, 64, 64, 64]               0
      BatchNorm3d-77       [-1, 64, 64, 64, 64]             128
           Conv3d-78       [-1, 64, 64, 64, 64]         110,656
             ReLU-79       [-1, 64, 64, 64, 64]               0
        Dropout3d-80       [-1, 64, 64, 64, 64]               0
        MaxPool3d-81       [-1, 64, 32, 32, 32]               0
           Conv3d-82       [-1, 64, 32, 32, 32]         110,656
             ReLU-83       [-1, 64, 32, 32, 32]               0
      BatchNorm3d-84       [-1, 64, 32, 32, 32]             128
           Conv3d-85       [-1, 64, 32, 32, 32]         110,656
             ReLU-86       [-1, 64, 32, 32, 32]               0
      BatchNorm3d-87       [-1, 64, 32, 32, 32]             128
        MaxPool3d-88       [-1, 64, 16, 16, 16]               0
           Conv3d-89       [-1, 64, 16, 16, 16]         110,656
             ReLU-90       [-1, 64, 16, 16, 16]               0
      BatchNorm3d-91       [-1, 64, 16, 16, 16]             128
           Conv3d-92       [-1, 64, 16, 16, 16]         110,656
             ReLU-93       [-1, 64, 16, 16, 16]               0
      BatchNorm3d-94       [-1, 64, 16, 16, 16]             128
           Conv3d-95       [-1, 64, 16, 16, 16]         110,656
             ReLU-96       [-1, 64, 16, 16, 16]               0
      BatchNorm3d-97       [-1, 64, 16, 16, 16]             128
        MaxPool3d-98          [-1, 64, 8, 8, 8]               0
           Conv3d-99          [-1, 96, 8, 8, 8]         165,984
            ReLU-100          [-1, 96, 8, 8, 8]               0
     BatchNorm3d-101          [-1, 96, 8, 8, 8]             192
          Conv3d-102          [-1, 96, 8, 8, 8]         248,928
            ReLU-103          [-1, 96, 8, 8, 8]               0
     BatchNorm3d-104          [-1, 96, 8, 8, 8]             192
          Conv3d-105          [-1, 96, 8, 8, 8]         248,928
            ReLU-106          [-1, 96, 8, 8, 8]               0
     BatchNorm3d-107          [-1, 96, 8, 8, 8]             192
       MaxPool3d-108          [-1, 96, 4, 4, 4]               0
          Conv3d-109          [-1, 96, 4, 4, 4]         248,928
            ReLU-110          [-1, 96, 4, 4, 4]               0
     BatchNorm3d-111          [-1, 96, 4, 4, 4]             192
          Conv3d-112          [-1, 96, 4, 4, 4]         248,928
            ReLU-113          [-1, 96, 4, 4, 4]               0
     BatchNorm3d-114          [-1, 96, 4, 4, 4]             192
          Conv3d-115          [-1, 96, 4, 4, 4]         248,928
            ReLU-116          [-1, 96, 4, 4, 4]               0
     BatchNorm3d-117          [-1, 96, 4, 4, 4]             192
       MaxPool3d-118          [-1, 96, 2, 2, 2]               0
          Conv3d-119          [-1, 96, 2, 2, 2]         248,928
            ReLU-120          [-1, 96, 2, 2, 2]               0
     BatchNorm3d-121          [-1, 96, 2, 2, 2]             192
          Conv3d-122          [-1, 96, 2, 2, 2]         248,928
            ReLU-123          [-1, 96, 2, 2, 2]               0
     BatchNorm3d-124          [-1, 96, 2, 2, 2]             192
          Conv3d-125          [-1, 96, 2, 2, 2]         248,928
            ReLU-126          [-1, 96, 2, 2, 2]               0
     BatchNorm3d-127          [-1, 96, 2, 2, 2]             192
         Flatten-128                  [-1, 768]               0
          Linear-129                   [-1, 96]          73,824
            ReLU-130                   [-1, 96]               0
          Linear-131                   [-1, 32]           3,104
            ReLU-132                   [-1, 32]               0
          Linear-133                    [-1, 1]              33
             CNN-134                    [-1, 1]               0
================================================================
Total params: 5,969,602
Trainable params: 5,969,602
Non-trainable params: 0
----------------------------------------------------------------
Input size (MB): 8.00
Forward/backward pass size (MB): 8080.32
Params size (MB): 22.77
Estimated Total Size (MB): 8111.09
----------------------------------------------------------------
[ Start ]
…
Epoch: 40, duration for validation: 0.00 minutes
train_mse_list:  [… train_mae_list:  [… valid_mse_list:  [… valid_mae_list:  [… Elapsed time for one epoch in cv: 0 minutes

<<< StratifiedKFold: 2/4 >>>
train_indices:  [    0     2     3 ... 25651 25653 25655] 19242
valid_indices:  [    1     5     8 ... 25649 25652 25654] 6414
images_names:  19242 35010
labels:  19242 67.0
images_names:  6414 35009
labels:  6414 65.0
----------------------------------------------------------------
        Layer (type)               Output Shape         Param #
================================================================
            Conv3d-1    [-1, 32, 128, 128, 128]             896
            Conv3d-2    [-1, 32, 128, 128, 128]             896
              ReLU-3    [-1, 32, 128, 128, 128]               0
              ReLU-4    [-1, 32, 128, 128, 128]               0
       BatchNorm3d-5    [-1, 32, 128, 128, 128]              64
       BatchNorm3d-6    [-1, 32, 128, 128, 128]              64
            Conv3d-7    [-1, 32, 128, 128, 128]          27,680
            Conv3d-8    [-1, 32, 128, 128, 128]          27,680
              ReLU-9    [-1, 32, 128, 128, 128]               0
             ReLU-10    [-1, 32, 128, 128, 128]               0
        Dropout3d-11    [-1, 32, 128, 128, 128]               0
        Dropout3d-12    [-1, 32, 128, 128, 128]               0
        MaxPool3d-13       [-1, 32, 64, 64, 64]               0
        MaxPool3d-14       [-1, 32, 64, 64, 64]               0
           Conv3d-15       [-1, 64, 64, 64, 64]          55,360
           Conv3d-16       [-1, 64, 64, 64, 64]          55,360
             ReLU-17       [-1, 64, 64, 64, 64]               0
             ReLU-18       [-1, 64, 64, 64, 64]               0
      BatchNorm3d-19       [-1, 64, 64, 64, 64]             128
      BatchNorm3d-20       [-1, 64, 64, 64, 64]             128
           Conv3d-21       [-1, 64, 64, 64, 64]         110,656
           Conv3d-22       [-1, 64, 64, 64, 64]         110,656
             ReLU-23       [-1, 64, 64, 64, 64]               0
             ReLU-24       [-1, 64, 64, 64, 64]               0
        Dropout3d-25       [-1, 64, 64, 64, 64]               0
        Dropout3d-26       [-1, 64, 64, 64, 64]               0
        MaxPool3d-27       [-1, 64, 32, 32, 32]               0
        MaxPool3d-28       [-1, 64, 32, 32, 32]               0
           Conv3d-29       [-1, 64, 32, 32, 32]         110,656
           Conv3d-30       [-1, 64, 32, 32, 32]         110,656
             ReLU-31       [-1, 64, 32, 32, 32]               0
             ReLU-32       [-1, 64, 32, 32, 32]               0
      BatchNorm3d-33       [-1, 64, 32, 32, 32]             128
      BatchNorm3d-34       [-1, 64, 32, 32, 32]             128
           Conv3d-35       [-1, 64, 32, 32, 32]         110,656
           Conv3d-36       [-1, 64, 32, 32, 32]         110,656
             ReLU-37       [-1, 64, 32, 32, 32]               0
      BatchNorm3d-38       [-1, 64, 32, 32, 32]             128
        MaxPool3d-39       [-1, 64, 16, 16, 16]               0
             ReLU-40       [-1, 64, 32, 32, 32]               0
           Conv3d-41       [-1, 64, 16, 16, 16]         110,656
             ReLU-42       [-1, 64, 16, 16, 16]               0
      BatchNorm3d-43       [-1, 64, 32, 32, 32]             128
      BatchNorm3d-44       [-1, 64, 16, 16, 16]             128
        MaxPool3d-45       [-1, 64, 16, 16, 16]               0
           Conv3d-46       [-1, 64, 16, 16, 16]         110,656
           Conv3d-47       [-1, 64, 16, 16, 16]         110,656
             ReLU-48       [-1, 64, 16, 16, 16]               0
             ReLU-49       [-1, 64, 16, 16, 16]               0
      BatchNorm3d-50       [-1, 64, 16, 16, 16]             128
      BatchNorm3d-51       [-1, 64, 16, 16, 16]             128
           Conv3d-52       [-1, 64, 16, 16, 16]         110,656
           Conv3d-53       [-1, 64, 16, 16, 16]         110,656
             ReLU-54       [-1, 64, 16, 16, 16]               0
             ReLU-55       [-1, 64, 16, 16, 16]               0
      BatchNorm3d-56       [-1, 64, 16, 16, 16]             128
      BatchNorm3d-57       [-1, 64, 16, 16, 16]             128
        MaxPool3d-58          [-1, 64, 8, 8, 8]               0
           Conv3d-59       [-1, 64, 16, 16, 16]         110,656
           Conv3d-60          [-1, 96, 8, 8, 8]         165,984
             ReLU-61       [-1, 64, 16, 16, 16]               0
             ReLU-62          [-1, 96, 8, 8, 8]               0
      BatchNorm3d-63       [-1, 64, 16, 16, 16]             128
      BatchNorm3d-64          [-1, 96, 8, 8, 8]             192
        MaxPool3d-65          [-1, 64, 8, 8, 8]               0
           Conv3d-66          [-1, 96, 8, 8, 8]         165,984
           Conv3d-67          [-1, 96, 8, 8, 8]         248,928
             ReLU-68          [-1, 96, 8, 8, 8]               0
             ReLU-69          [-1, 96, 8, 8, 8]               0
      BatchNorm3d-70          [-1, 96, 8, 8, 8]             192
      BatchNorm3d-71          [-1, 96, 8, 8, 8]             192
           Conv3d-72          [-1, 96, 8, 8, 8]         248,928
           Conv3d-73          [-1, 96, 8, 8, 8]         248,928
             ReLU-74          [-1, 96, 8, 8, 8]               0
      BatchNorm3d-75          [-1, 96, 8, 8, 8]             192
             ReLU-76          [-1, 96, 8, 8, 8]               0
      BatchNorm3d-77          [-1, 96, 8, 8, 8]             192
           Conv3d-78          [-1, 96, 8, 8, 8]         248,928
        MaxPool3d-79          [-1, 96, 4, 4, 4]               0
             ReLU-80          [-1, 96, 8, 8, 8]               0
           Conv3d-81          [-1, 96, 4, 4, 4]         248,928
      BatchNorm3d-82          [-1, 96, 8, 8, 8]             192
             ReLU-83          [-1, 96, 4, 4, 4]               0
      BatchNorm3d-84          [-1, 96, 4, 4, 4]             192
        MaxPool3d-85          [-1, 96, 4, 4, 4]               0
           Conv3d-86          [-1, 96, 4, 4, 4]         248,928
           Conv3d-87          [-1, 96, 4, 4, 4]         248,928
             ReLU-88          [-1, 96, 4, 4, 4]               0
             ReLU-89          [-1, 96, 4, 4, 4]               0
      BatchNorm3d-90          [-1, 96, 4, 4, 4]             192
      BatchNorm3d-91          [-1, 96, 4, 4, 4]             192
           Conv3d-92          [-1, 96, 4, 4, 4]         248,928
           Conv3d-93          [-1, 96, 4, 4, 4]         248,928
             ReLU-94          [-1, 96, 4, 4, 4]               0
             ReLU-95          [-1, 96, 4, 4, 4]               0
      BatchNorm3d-96          [-1, 96, 4, 4, 4]             192
      BatchNorm3d-97          [-1, 96, 4, 4, 4]             192
        MaxPool3d-98          [-1, 96, 2, 2, 2]               0
           Conv3d-99          [-1, 96, 4, 4, 4]         248,928
          Conv3d-100          [-1, 96, 2, 2, 2]         248,928
            ReLU-101          [-1, 96, 4, 4, 4]               0
            ReLU-102          [-1, 96, 2, 2, 2]               0
     BatchNorm3d-103          [-1, 96, 4, 4, 4]             192
     BatchNorm3d-104          [-1, 96, 2, 2, 2]             192
       MaxPool3d-105          [-1, 96, 2, 2, 2]               0
          Conv3d-106          [-1, 96, 2, 2, 2]         248,928
          Conv3d-107          [-1, 96, 2, 2, 2]         248,928
            ReLU-108          [-1, 96, 2, 2, 2]               0
            ReLU-109          [-1, 96, 2, 2, 2]               0
     BatchNorm3d-110          [-1, 96, 2, 2, 2]             192
     BatchNorm3d-111          [-1, 96, 2, 2, 2]             192
          Conv3d-112          [-1, 96, 2, 2, 2]         248,928
          Conv3d-113          [-1, 96, 2, 2, 2]         248,928
            ReLU-114          [-1, 96, 2, 2, 2]               0
            ReLU-115          [-1, 96, 2, 2, 2]               0
     BatchNorm3d-116          [-1, 96, 2, 2, 2]             192
     BatchNorm3d-117          [-1, 96, 2, 2, 2]             192
         Flatten-118                  [-1, 768]               0
          Conv3d-119          [-1, 96, 2, 2, 2]         248,928
          Linear-120                   [-1, 96]          73,824
            ReLU-121          [-1, 96, 2, 2, 2]               0
            ReLU-122                   [-1, 96]               0
     BatchNorm3d-123          [-1, 96, 2, 2, 2]             192
          Linear-124                   [-1, 32]           3,104
         Flatten-125                  [-1, 768]               0
            ReLU-126                   [-1, 32]               0
          Linear-127                   [-1, 96]          73,824
          Linear-128                    [-1, 1]              33
            ReLU-129                   [-1, 96]               0
             CNN-130                    [-1, 1]               0
          Linear-131                   [-1, 32]           3,104
            ReLU-132                   [-1, 32]               0
          Linear-133                    [-1, 1]              33
             CNN-134                    [-1, 1]               0
================================================================
Total params: 5,969,602
Trainable params: 5,969,602
Non-trainable params: 0
----------------------------------------------------------------
Input size (MB): 8.00
Forward/backward pass size (MB): 8080.32
Params size (MB): 22.77
Estimated Total Size (MB): 8111.09
----------------------------------------------------------------
[ Start ]
…
