…
/home/n1/yeinhwang/anaconda3/envs/ba_torch/lib/python3.9/site-packages/torch/utils/data/dataloader.py:560: UserWarning: This DataLoader will create 8 worker processes in total. Our suggested max number of worker in current system is 2, which is smaller than what this DataLoader is going to create. Please be aware that excessive worker creation might get DataLoader running slow or even freeze, lower the worker number to avoid potential slowness/freeze if necessary.
  warnings.warn(_create_warning_msg(
----------------------------------------------------------------
        Layer (type)               Output Shape         Param #
================================================================
            Conv3d-1    [-1, 32, 128, 128, 128]             896
              ReLU-2    [-1, 32, 128, 128, 128]               0
       BatchNorm3d-3    [-1, 32, 128, 128, 128]              64
            Conv3d-4    [-1, 32, 128, 128, 128]          27,680
              ReLU-5    [-1, 32, 128, 128, 128]               0
         Dropout3d-6    [-1, 32, 128, 128, 128]               0
         MaxPool3d-7       [-1, 32, 64, 64, 64]               0
            Conv3d-8       [-1, 64, 64, 64, 64]          55,360
              ReLU-9       [-1, 64, 64, 64, 64]               0
      BatchNorm3d-10       [-1, 64, 64, 64, 64]             128
           Conv3d-11       [-1, 64, 64, 64, 64]         110,656
             ReLU-12       [-1, 64, 64, 64, 64]               0
        Dropout3d-13       [-1, 64, 64, 64, 64]               0
        MaxPool3d-14       [-1, 64, 32, 32, 32]               0
           Conv3d-15       [-1, 64, 32, 32, 32]         110,656
             ReLU-16       [-1, 64, 32, 32, 32]               0
      BatchNorm3d-17       [-1, 64, 32, 32, 32]             128
           Conv3d-18       [-1, 64, 32, 32, 32]         110,656
             ReLU-19       [-1, 64, 32, 32, 32]               0
      BatchNorm3d-20       [-1, 64, 32, 32, 32]             128
        MaxPool3d-21       [-1, 64, 16, 16, 16]               0
           Conv3d-22       [-1, 64, 16, 16, 16]         110,656
             ReLU-23       [-1, 64, 16, 16, 16]               0
      BatchNorm3d-24       [-1, 64, 16, 16, 16]             128
           Conv3d-25       [-1, 64, 16, 16, 16]         110,656
             ReLU-26       [-1, 64, 16, 16, 16]               0
      BatchNorm3d-27       [-1, 64, 16, 16, 16]             128
           Conv3d-28       [-1, 64, 16, 16, 16]         110,656
             ReLU-29       [-1, 64, 16, 16, 16]               0
      BatchNorm3d-30       [-1, 64, 16, 16, 16]             128
        MaxPool3d-31          [-1, 64, 8, 8, 8]               0
           Conv3d-32          [-1, 96, 8, 8, 8]         165,984
             ReLU-33          [-1, 96, 8, 8, 8]               0
      BatchNorm3d-34          [-1, 96, 8, 8, 8]             192
           Conv3d-35          [-1, 96, 8, 8, 8]         248,928
             ReLU-36          [-1, 96, 8, 8, 8]               0
      BatchNorm3d-37          [-1, 96, 8, 8, 8]             192
           Conv3d-38          [-1, 96, 8, 8, 8]         248,928
             ReLU-39          [-1, 96, 8, 8, 8]               0
      BatchNorm3d-40          [-1, 96, 8, 8, 8]             192
        MaxPool3d-41          [-1, 96, 4, 4, 4]               0
           Conv3d-42          [-1, 96, 4, 4, 4]         248,928














